_________________________________________________________________
Layer (type)                 Output Shape              Param #   
=================================================================
conv2d_1 (Conv2D)            (None, 7, 7, 64)          640       
_________________________________________________________________
dropout_1 (Dropout)          (None, 7, 7, 64)          0         
_________________________________________________________________
conv2d_2 (Conv2D)            (None, 5, 5, 64)          36928     
_________________________________________________________________
max_pooling2d_1 (MaxPooling2 (None, 2, 2, 64)          0         
_________________________________________________________________
dropout_2 (Dropout)          (None, 2, 2, 64)          0         
_________________________________________________________________
flatten_1 (Flatten)          (None, 256)               0         
_________________________________________________________________
dense_1 (Dense)              (None, 512)               131584    
_________________________________________________________________
dropout_3 (Dropout)          (None, 512)               0         
_________________________________________________________________
dense_2 (Dense)              (None, 81)                41553     
=================================================================
Total params: 210,705
Trainable params: 210,705
Non-trainable params: 0
_________________________________________________________________
Train on 10000 samples, validate on 31439 samples
Epoch 1/100

   64/10000 [..............................] - ETA: 5:14 - loss: 4.4055 - acc: 0.0156
  640/10000 [>.............................] - ETA: 30s - loss: 4.4513 - acc: 0.0141 
…
