_________________________________________________________________
Layer (type)                 Output Shape              Param #   
=================================================================
conv2d_1 (Conv2D)            (None, 7, 7, 48)          480       
_________________________________________________________________
dropout_1 (Dropout)          (None, 7, 7, 48)          0         
_________________________________________________________________
conv2d_2 (Conv2D)            (None, 5, 5, 48)          20784     
_________________________________________________________________
max_pooling2d_1 (MaxPooling2 (None, 2, 2, 48)          0         
_________________________________________________________________
dropout_2 (Dropout)          (None, 2, 2, 48)          0         
_________________________________________________________________
flatten_1 (Flatten)          (None, 192)               0         
_________________________________________________________________
dense_1 (Dense)              (None, 512)               98816     
_________________________________________________________________
dropout_3 (Dropout)          (None, 512)               0         
_________________________________________________________________
dense_2 (Dense)              (None, 81)                41553     
=================================================================
Total params: 161,633
Trainable params: 161,633
Non-trainable params: 0
_________________________________________________________________
Train on 37295 samples, validate on 4144 samples
Epoch 1/100

   64/37295 [..............................] - ETA: 19:46 - loss: 4.4519 - acc: 0.0000e+00
  576/37295 [..............................] - ETA: 2:13 - loss: 4.4644 - acc: 0.0104     
…
