_________________________________________________________________
Layer (type)                 Output Shape              Param #   
=================================================================
conv2d_1 (Conv2D)            (None, 7, 7, 32)          320       
_________________________________________________________________
dropout_1 (Dropout)          (None, 7, 7, 32)          0         
_________________________________________________________________
conv2d_2 (Conv2D)            (None, 5, 5, 64)          18496     
_________________________________________________________________
max_pooling2d_1 (MaxPooling2 (None, 2, 2, 64)          0         
_________________________________________________________________
dropout_2 (Dropout)          (None, 2, 2, 64)          0         
_________________________________________________________________
flatten_1 (Flatten)          (None, 256)               0         
_________________________________________________________________
dense_1 (Dense)              (None, 128)               32896     
_________________________________________________________________
dropout_3 (Dropout)          (None, 128)               0         
_________________________________________________________________
dense_2 (Dense)              (None, 81)                10449     
=================================================================
Total params: 62,161
Trainable params: 62,161
Non-trainable params: 0
_________________________________________________________________
Train on 10000 samples, validate on 31439 samples
Epoch 1/100

   64/10000 [..............................] - ETA: 5:19 - loss: 4.4990 - acc: 0.0156
  512/10000 [>.............................] - ETA: 39s - loss: 4.4982 - acc: 0.0098 
…
